app/src/main/assets/model.tflite (tflite, 1844 bytes, 3 tensors)

arith.constant f4 [1, 10]
0	0x3f37da75	0.71817714
1	0xbddcc154	-0.10779062
2	0xbc85ef80	-0.016349554
3	0xbf469cc1	-0.7758294
4	0x3d459cd9	0.048245285
5	0x3f17a47b	0.5923535
6	0xbdd99958	-0.10624951
7	0x3e96aa5a	0.29426843
8	0x3f02aa44	0.51041055
9	0x3f2298ed	0.63514596

sequential_1/dense_1/Add/ReadVariableOp f4 [10]
0	0x00000000	0.0
1	0x3d5b7cfd	0.053585995
2	0x00000000	0.0
3	0x3d4e05f0	0.05029863
4	0xbd3c151c	-0.04591857
5	0xbd4a6cea	-0.049420275
6	0x00000000	0.0
7	0x00000000	0.0
8	0xbd4a1ed0	-0.04934579
9	0xbd4a8a6d	-0.04944842

sequential_1/dense_1/MatMul f4 [10, 2]
0	0x3f337b61	0.70110136
1	0xbf1e9a3c	-0.6195409
2	0xbe8a196a	-0.26972514
3	0x3f010580	0.5039902
4	0xbe2b8b44	-0.16752344
5	0xbe017aa4	-0.1264444
6	0x3f102415	0.56305057
7	0x3f0e2709	0.5552831
8	0x3f11e410	0.5698862
9	0x3ed2abe6	0.41146773
10	0xbe6b2189	-0.22962011
11	0x3ea0d6b1	0.31413797
12	0xbe859223	-0.26088056
13	0xbf2a6c69	-0.6657167
14	0xbe2f5bb0	-0.1712482
15	0xbd815ca0	-0.06316495
16	0x3e5ab455	0.21357854
17	0x3e99aaf5	0.30013242
18	0xbcc6030f	-0.02417138
19	0x3ef7013c	0.4824313
